backend/collision_mlp_model.pt (torch, 43173 bytes, 5 tensors)

model.0.weight f4 [128, 12]
0	0xbcb7eea3	-0.022452658
1	0x3e85901c	0.2608651
2	0xbea08526	-0.31351584
3	0xbe362071	-0.17785813
4	0x3dc9fd31	0.098627456
5	0x3ea21fa7	0.31664774
6	0xbe1a4f15	-0.1506923
7	0xbe653a24	-0.2238546
8	0x3e923dc1	0.2856274
9	0x3b97453d	0.004616408
10	0xbe0de541	-0.13856985
11	0xbd97356f	-0.073832385
12	0xbdc8028d	-0.097661115
13	0x3d5eabf8	0.05436322
14	0x3e2407f8	0.16018665
15	0xbe5e49c9	-0.21707834
16	0x3e8aa8d6	0.27081937
17	0x3e2ecd74	0.17070562
18	0x3df6bc7b	0.120476685
19	0xbe29dfb2	-0.16589239
20	0x3d56cf1f	0.05244362
21	0x3e14c150	0.14526868
22	0x3e460a51	0.19339873
23	0xbe26ab2e	-0.16276237
24	0x3e95aab8	0.2923181
25	0x3d88e0e4	0.066835195
26	0xbe6b85a5	-0.230002
27	0x3e740bcb	0.23832624
28	0x3ea615de	0.32438558
29	0xbea7b110	-0.32752275
30	0x3e7868ff	0.24258803
31	0xbea7aa24	-0.32746994
32	0xbe182340	-0.14857197
33	0xbd190755	-0.037360508
34	0x3d8ff025	0.07028226
35	0x3d7e8138	0.06213495
36	0x3d58821e	0.052858464
37	0x3df12742	0.11775066
38	0x3ee878cb	0.45404658
39	0xbe5d75c1	-0.21626951
40	0x3d906abf	0.0705161
41	0xbde3d2fc	-0.111242265
42	0xbdadb3f4	-0.08481589
43	0xbdd1b2ba	-0.102391675
44	0x3e4e5510	0.20149636
45	0x3e9ee4f8	0.31034064
46	0x3d08cb18	0.03339681
47	0x3e4c8bcf	0.19975208
48	0xbebde7c4	-0.37090886
49	0x3dfdd8e2	0.12394883
50	0xbdf1cc8f	-0.118065946
51	0x3e7c7542	0.24654105
52	0xbe9648df	-0.2935247
53	0x3e84df2f	0.25951526
54	0x3d9e563d	0.077312924
55	0xbe627057	-0.22113167
56	0xbe40b6c1	-0.18819715
57	0x3e5806fd	0.21096416
58	0x3c4374e2	0.0119297225
59	0xbdcc8970	-0.099871516
60	0xbd9872ea	-0.07443793
61	0xbe121bc1	-0.142684
62	0x3e8bda28	0.27314878
63	0xbe1d3932	-0.1535385
64	0xbe0288d8	-0.12747514
65	0xbe54b647	-0.20772658
66	0x3dedc93f	0.1161065
67	0xbdda71ec	-0.1066626
68	0xbdb63461	-0.08896709
69	0x3e886ea3	0.2664691
70	0xbe4ffc43	-0.20311074
71	0x3e8c9561	0.27457717
72	0x3e844d9d	0.25840464
73	0x3e609a86	0.21933946
74	0xbe8ea397	-0.27859184
75	0xbe0ef302	-0.13959888
76	0x3e68cf23	0.22735266
77	0x3e8ebc5a	0.27878076
78	0xbdcdcf16	-0.10049264
79	0x3cf2ef20	0.02965504
80	0xbe84e924	-0.25959122
81	0x3e31c5b8	0.1736058
82	0x3e627266	0.22113952
83	0x3e5c517f	0.21515463
84	0x3e5f815a	0.21826687
85	0xbe2d0551	-0.1689656
86	0xbd862ddb	-0.06551715
87	0x3e7ea02e	0.24865791
88	0x3e7892e3	0.24274783
89	0x3e8e0bf1	0.27743486
90	0xbe5ddc12	-0.21665981
91	0x3e2cb9a3	0.1686769
92	0xbb55e03f	-0.0032634882
93	0x3d82338c	0.06357488
94	0x3e9cb670	0.3060794
95	0xbe30d04d	-0.1726696
96	0xbe01c59b	-0.12673037
97	0xbda0c48b	-0.078499876
98	0xbde56597	-0.11201017
99	0x3b985b37	0.0046495455
100	0x3d650582	0.055913456
101	0x3de4af0e	0.111662015
102	0xbd16a014	-0.036773756
103	0xbe410658	-0.18850076
104	0xbdc4769a	-0.09592934
105	0xbbef1d75	-0.0072972127
106	0x3e09d91a	0.13461724
107	0x3cc00720	0.023440897
108	0xbe827b82	-0.25484854
109	0x3da3267d	0.079663254
110	0x3e99f013	0.30065975
111	0xbce55262	-0.027993385
112	0xbdc1679f	-0.09443592
113	0xbec4ef98	-0.38464046
114	0x3d5b9636	0.05361005
115	0x3e839ba0	0.2570467
116	0xbd2ce58c	-0.0422111
117	0x3e68b12b	0.22723834
118	0xbe1f6892	-0.15567234
119	0x3d2c627c	0.04208611
120	0xbd9048c3	-0.07045128
121	0xbe4e8991	-0.20169665
122	0xbc9c7e54	-0.019103207
123	0x3d91c2ab	0.07117208
124	0x3e7bae31	0.24578167
125	0xbe40cef9	-0.18828954
126	0x3e8745ec	0.26420534
127	0x3cf2abdf	0.02962297
128	0x3c8eb885	0.01742197
129	0xbd8829e8	-0.06648618
130	0xbe8c2071	-0.273685
131	0x3dc7becd	0.09753189
132	0xbe01759f	-0.12642525
133	0x3dce1ed2	0.10064472
134	0x3e8addbd	0.27122298
135	0x3e75776f	0.23971342
136	0x3de58865	0.11207656
137	0x3e9276ed	0.28606358
138	0x3cb57714	0.022151507
139	0x3e4984f1	0.1967962
140	0x3e9d69b4	0.30744708
141	0xbd98148f	-0.07425796
142	0xbd9b5641	-0.07584811
143	0x3e041bd0	0.12901235
144	0xbc8e7472	-0.01738951
145	0xbc92353b	-0.017847648
146	0xbc8f1bbc	-0.01746928
147	0xbe1c3ae9	-0.15256847
148	0xbe858e49	-0.26085117
149	0xbb761a3b	-0.0037552256
150	0xbe47d5c1	-0.19515134
151	0xbcf91d6b	-0.030409535
152	0x3dc2fcad	0.0952085
153	0xbe52c142	-0.20581535
154	0x3e71cc92	0.23613194
155	0x3e10d33e	0.14143082
156	0xbe7172d9	-0.23578967
157	0x3e9dee67	0.3084595
158	0xbe5415fd	-0.20711513
159	0xbeb196e7	-0.34685442
160	0x3e8e6b76	0.2781636
161	0x3e9ac399	0.30227354
162	0xbe877d18	-0.26462626
163	0xbe8c782a	-0.27435428
164	0x3c17fcf8	0.009276621
165	0x3e8fe02e	0.28100723
166	0xbe96b573	-0.2943531
167	0x3eb8ad50	0.36069727
168	0xbe66b7c6	-0.22531042
169	0x3e823384	0.25429928
170	0x3e0efaf5	0.1396292
171	0xbdb1db39	-0.086843915
172	0xbc34bff5	-0.011032094
173	0xbe83df10	-0.2575612
174	0x3d9625a3	0.073313974
175	0x3e6ec710	0.23318124
176	0xbd187d15	-0.037228663
177	0x3ec084c4	0.37601292
178	0xbd81b036	-0.06332438
179	0x3e670ad6	0.22562727
180	0xbe11908f	-0.14215301
181	0xbd41a7d8	-0.04727921
182	0xbdaef2c8	-0.085424006
183	0xbeaae84d	-0.33380356
184	0xbe57efd8	-0.21087587
185	0x3e5f82d9	0.21827258
186	0xbeaf031a	-0.34182054
187	0x3da2f0ee	0.0795611
188	0xbe91e8be	-0.2849788
189	0x3e2f0d9c	0.17095035
190	0x3d9e765e	0.077374205
191	0x3e6eff51	0.23339583
192	0xbd314247	-0.043276098
193	0x3ea35da1	0.3190737
194	0x3dd3006f	0.10302817
195	0xbe8a0ffd	-0.26965323
196	0xbe4b1cd1	-0.19835211
197	0x3d7639ff	0.060113903
198	0xbe2f3fe6	-0.17114219
199	0x3e05c848	0.13064682
200	0x3e5bf303	0.2147942
201	0x3e93c314	0.2885977
202	0xbe90be28	-0.28270078
203	0x3e51bde5	0.20482595
204	0x3da67afb	0.081289254
205	0x3dee4cf1	0.11635769
206	0x3eb0fe9f	0.3456926
207	0x3e12c79d	0.14333959
208	0x3dca24e0	0.098703146
209	0x3d087f34	0.033324435
210	0xbe286b75	-0.16447242
211	0x3c660d88	0.014041312
212	0x3cfba6c4	0.030719168
213	0x3bedc68f	0.007256336
214	0xbe8da264	-0.27662957
215	0x3d77717c	0.06041096
216	0xbe7f4986	-0.2493039
217	0xbe5c2c23	-0.21501212
218	0x3e34ddc8	0.17662728
219	0x3e9a5d12	0.30149132
220	0xbe3a8666	-0.18215331
221	0x3e369d94	0.17833549
222	0x3dd54c88	0.10414988
223	0xbe822403	-0.254181
224	0xbe16cb40	-0.14725971
225	0x3e0c3d5c	0.13695282
226	0xbd7c2c11	-0.061565462
227	0xbe20abb0	-0.15690494
228	0xbdc896d6	-0.09794395
229	0x3e3d04ce	0.18458864
230	0x3c7921e4	0.015205834
231	0x3e525f7d	0.20544238
232	0xbe61ad81	-0.22038843
233	0x3c9af360	0.018914878
234	0x3de96c63	0.11397626
235	0x3e234fbf	0.1594839
236	0xbe966d8e	-0.2938046
237	0xbde8a1dc	-0.11358997
238	0x3dca915c	0.09891006
239	0xbe3800f9	-0.17969121
240	0x3e4913d3	0.19636469
241	0xbe464ad5	-0.19364484
242	0x3e93daa0	0.28877735
243	0xbd0e1c39	-0.034694884
244	0xbe6657f5	-0.2249449
245	0x3c7e2d5a	0.015513742
246	0xbc8f6734	-0.017505266
247	0xbdcaca83	-0.09901907
248	0x3e1c7e6a	0.15282598
249	0xbe06c279	-0.13160123
250	0x3e52ce31	0.20586468
251	0x3ce7e9e4	0.02830977
252	0xbe5d0b8b	-0.21586435
253	0xbd1aa572	-0.037755437
254	0x3e671d17	0.2256969
255	0xbc864aa8	-0.01639302

model.0.bias f4 [128]
0	0xbd186562	-0.03720606
1	0x3c81fd9c	0.015868
2	0xbe1c0e5e	-0.15239856
3	0x3cf9ece0	0.030508459
4	0x3b5d8836	0.0033803112
5	0x3e82abd4	0.2552172
6	0x3db489b8	0.0881533
7	0x3d285e61	0.04110563
8	0x3d4d4299	0.05011234
9	0xbe502d1d	-0.2032971
10	0x3dab4873	0.08363428
11	0xbe404229	-0.18775238
12	0xbdeeb13e	-0.116549
13	0xbd78a852	-0.060707398
14	0x3cc465e5	0.023974368
15	0x3e316556	0.17323813
16	0xbe42ca5f	-0.19022511
17	0x3ea615c8	0.32438493
18	0x3c0c6bb5	0.008570601
19	0x3ddad586	0.106852576
20	0x3ca26617	0.01982407
21	0xbda394e0	-0.0798738
22	0x3e1b8e87	0.15191089
23	0x3d924ed2	0.0714394
24	0x3e9d9b60	0.30782604
25	0x3d68e18a	0.056855716
26	0x3e032e84	0.12810713
27	0x3e6909c6	0.22757635
28	0x3e8ba80e	0.27276653
29	0xbd09ea53	-0.033670735
30	0x3d2654e6	0.04060831
31	0xbdee9c10	-0.1165086
32	0xbe4fb0e8	-0.20282328
33	0x3d8e8266	0.06958465
34	0x3e298cbd	0.16557594
35	0xbe279765	-0.16366346
36	0x3d0ce7cc	0.034400746
37	0x3e2dccf2	0.16972712
38	0xbba23e46	-0.004951271
39	0xbd074eb5	-0.033034045
40	0x3e9ef1e1	0.31043914
41	0xbe006a67	-0.1254059
42	0xbdae8892	-0.085221425
43	0x3e984c1a	0.2974556
44	0x3cd765d7	0.026293678
45	0x3eae0328	0.33986783
46	0x3e9cc715	0.30620638
47	0xbe3823cd	-0.17982407
48	0x3e540e45	0.20708568
49	0x3e8c1e98	0.2736709
50	0xbe1ea51f	-0.15492676
51	0x3d8c5d8a	0.06853779
52	0x3d6843c1	0.05670524
53	0xbe704f17	-0.2346767
54	0x3eb48f80	0.35265732
55	0xbe09204e	-0.1339123
56	0x3e14a4b0	0.14515948
57	0xbd59cc9d	-0.05317365
58	0x3e1ba96d	0.1520135
59	0x3d5f846f	0.054569658
60	0x3d0aacfa	0.03385637
61	0x3d1b8a4e	0.037973695
62	0x3dc7e33c	0.097601384
63	0xbd84a745	-0.06477217
64	0x3e830b11	0.2559438
65	0x3e9c652a	0.30545932
66	0x3e31333a	0.17304698
67	0xbe23400b	-0.15942399
68	0x3de78cd2	0.11306156
69	0xbe46f00e	-0.19427511
70	0xbe454e7b	-0.19268219
71	0x3e40012d	0.18750449
72	0x3da5bae0	0.08092284
73	0xbe2911d8	-0.16510713
74	0x3dd14ec0	0.102200985
75	0x3e4409a8	0.19144309
76	0xbdbb6314	-0.09149757
77	0x3e56f84f	0.2099316
78	0xbe4099f1	-0.18808724
79	0x3e8de5f9	0.27714518
80	0x3e4b1e8a	0.19835868
81	0x3ea7231f	0.32643983
82	0x3e9a9812	0.30194145
83	0xbe2df9ab	-0.16989772
84	0x3dbddf73	0.09271135
85	0xbdfed957	-0.12443798
86	0xbe0d9efd	-0.1383018
87	0x3dbcf6b8	0.09226745
88	0x3d845212	0.06460966
89	0xbe822efa	-0.25426465
90	0xbdc24490	-0.094857335
91	0xbd8462ca	-0.06464155
92	0x3e917277	0.28407642
93	0xbded9a8b	-0.11601742
94	0x3d0545f1	0.032537404
95	0xbd8782fc	-0.0661678
96	0xbe9f0631	-0.3105941
97	0x3d4bb7f4	0.04973598
98	0x3e27f38c	0.164015
99	0x3c059c56	0.008154949
100	0xbcf09941	-0.029369952
101	0xbda2aa43	-0.07942631
102	0xbdb18068	-0.0866707
103	0x3e7a04cd	0.24415894
104	0xbe021f98	-0.12707365
105	0x3d8243db	0.06360599
106	0xbde54762	-0.11195256
107	0x3e8702ee	0.26369423
108	0x3dda850a	0.106699064
109	0x3e56a48c	0.20961207
110	0x3e2fd0f8	0.17169559
111	0x3e463341	0.1935549
112	0x3e6cc38b	0.23121469
113	0x3ea0e315	0.3142325
114	0x3e707bfa	0.23484793
115	0xbe615dfb	-0.22008507
116	0xbdf46be1	-0.11934639
117	0x3d124488	0.035709888
118	0xbe23a40a	-0.15980545
119	0x3e581741	0.2110262
120	0x3ddc2837	0.10749858
121	0x3e3a4613	0.18190794
122	0xbe206e73	-0.15667133
123	0x3db4d15c	0.08828995
124	0xbe92920f	-0.2862706
125	0x3e3f7203	0.18695836
126	0xbe257c26	-0.1616064
127	0xbceed831	-0.029155822

model.2.weight f4 [64, 128]
0	0x3d056ef6	0.032576524
1	0x3ba94d5b	0.005166692
2	0xbc7ced90	-0.015437499
3	0xbd982d28	-0.07430488
4	0xbcb4fd2d	-0.02209338
5	0x3c1c3dbc	0.009536203
6	0xbdc95ef8	-0.09832567
7	0xbcaa28bb	-0.020771375
8	0x3c72dca5	0.014823114
9	0x3d9619c1	0.07329131
10	0xbd75a9d4	-0.059976414
11	0xbcbd5f2d	-0.023116672
12	0xbd3fda23	-0.04683889
13	0x3d1f6935	0.038918693
14	0xbdc66d6c	-0.09688839
15	0xbd81e08a	-0.063416556
16	0x3d6b863f	0.057501074
17	0x3d869146	0.065706775
18	0xbdd0f492	-0.10202898
19	0x3c52e8be	0.012872873
20	0xbd10188e	-0.035179667
21	0xbd8c3648	-0.06846291
22	0xbd9f569d	-0.07780192
23	0xbd4ba50b	-0.049717944
24	0xbd385d6b	-0.045010965
25	0x3d514f94	0.051101282
26	0xbd3cfe72	-0.046141095
27	0xbd71070d	-0.058844615
28	0xbdbd5d16	-0.0924627
29	0xbd6f9306	-0.05848982
30	0xbd43d0c3	-0.047806513
31	0xbd77e34e	-0.06051951
32	0xbd5228a5	-0.051308293
33	0x3d95dc58	0.07317418
34	0xbca6872d	-0.020328129
35	0xba26d5fb	-0.0006364283
36	0x3c4c1948	0.012457199
37	0x3d47c4e8	0.04877177
38	0x3d757843	0.059929144
39	0xbdbdc714	-0.09266487
40	0xbd5eb5cd	-0.054372597
41	0x3d284d50	0.041089356
42	0xbd7176e2	-0.058951266
43	0x3c625120	0.013813287
44	0xbdaf9434	-0.085731894
45	0x3c11dbb9	0.008902484
46	0x3d1b31d8	0.03788933
47	0x3d3dac8b	0.046307128
48	0x3d92a792	0.07160868
49	0xbb6e6b35	-0.0036379818
50	0x3cc88ba7	0.024480654
51	0x3cfcd05b	0.03086107
52	0x3c77e52b	0.0151303215
53	0x3ca72c0c	0.020406745
54	0x3b807989	0.003920738
55	0x3cf16711	0.029468091
56	0x3af52671	0.0018703473
57	0xbd4a5dd6	-0.049405895
58	0xbd3c8839	-0.04602835
59	0xbdac91f2	-0.08426274
60	0x3d044273	0.032289933
61	0xbc2ad349	-0.010426351
62	0xbd917b14	-0.071035534
63	0x3d634b83	0.055491935
64	0xbdca5dc3	-0.09881165
65	0x3d89f699	0.06736488
66	0xbdbb0b25	-0.09132985
67	0xbd037332	-0.03209228
68	0xbba36b86	-0.004987183
69	0x3d556a5f	0.052103397
70	0xbd932542	-0.07184841
71	0x3cf49884	0.029857881
72	0x3bb6a5b2	0.0055739516
73	0x3d50504e	0.050857835
74	0x3d0367b0	0.032081306
75	0xbd316280	-0.043306828
76	0x3c878cc4	0.016546614
77	0xbdb078a5	-0.08616761
78	0x3d61e955	0.055154163
79	0xbdb15dac	-0.086604446
80	0x3c6fd3b3	0.014637875
81	0xbc26b3e0	-0.0101747215
82	0xbcaa1b63	-0.020765012
83	0xbb9bbc1c	-0.004752649
84	0xbd875876	-0.066086695
85	0x3bd52403	0.006504537
86	0x3d8177d8	0.063216865
87	0x3c34ae54	0.011027891
88	0xbc82fb24	-0.015988894
89	0xbda62e22	-0.08114268
90	0xbdad8609	-0.08472831
91	0x3cffee45	0.031241545
92	0xbdbd5d21	-0.092462786
93	0xbcdc219e	-0.026871499
94	0x3d2c4bcd	0.042064477
95	0xbd4a79d7	-0.0494326
96	0x3ce9abec	0.028524362
97	0xbdbc924b	-0.09207591
98	0x3d45e76e	0.04831641
99	0xbd36744e	-0.04454451
100	0xbd5a8b61	-0.05335558
101	0xbd8afe8f	-0.067868344
102	0x3d923669	0.07139284
103	0x3d6a4745	0.057196874
104	0xbd91cfe6	-0.071197316
105	0x3d2e0347	0.042483594
106	0x3b866abe	0.00410208
107	0xbcacd9a5	-0.021099875
108	0xbd507597	-0.050893392
109	0xbd361433	-0.044452857
110	0x378f3f86	1.7076509e-05
111	0xbd54ca0e	-0.051950507
112	0x39dee79c	0.00042515702
113	0x3b698b44	0.0035635987
114	0xbab34b19	-0.0013678997
115	0xbd0032de	-0.03129851
116	0xbda02618	-0.07819766
117	0xbce3e9ca	-0.02782144
118	0xbd748c42	-0.059704073
119	0xbd83668e	-0.06416045
120	0xbd663789	-0.056205306
121	0xbd8d14ba	-0.06888719
122	0xbda00e16	-0.07815187
123	0x3c697dd2	0.014251189
124	0xbdaaff45	-0.0834947
125	0x3d2a4924	0.04157366
126	0xbcd2b620	-0.02572161
127	0xbdbb0bc7	-0.09133106
128	0x3ac4ec3c	0.0015024017
129	0x3e0dece8	0.13859904
130	0xbc367bcd	-0.011137915
131	0x3e05774a	0.13033786
132	0x3da27887	0.07933145
133	0x3d4ba7c7	0.04972055
134	0x3d38c84c	0.045112893
135	0xbc9b8584	-0.018984564
136	0x3c874e00	0.016516685
137	0x3e0053f5	0.12532027
138	0xbd2689d5	-0.04065879
139	0x3de50d90	0.111842275
140	0xbcb9d72a	-0.022685606
141	0x3d8e9774	0.06962481
142	0x3ae0d29e	0.0017152613
143	0x3e1c7e78	0.15282619
144	0x3be4bd9d	0.0069806115
145	0x3df75d3d	0.12078331
146	0x3d9d7dcb	0.07690009
147	0x3dbd9fb3	0.09258976
148	0x3d72ac25	0.0592462
149	0xbb8131dc	-0.0039427113
150	0x3cdaac38	0.026693448
151	0x3d159dea	0.03652755
152	0x3db4f37f	0.08835506
153	0x3d6bdb90	0.057582438
154	0x3ca64fbc	0.020301692
155	0x3dee6fce	0.11642419
156	0x3d770ce2	0.06031502
157	0x3ddc8f32	0.107695
158	0x3d85297e	0.06502055
159	0x3d12168d	0.035666037
160	0x3e04cfa0	0.12969828
161	0x3da77270	0.08176124
162	0x3ca5a413	0.020219838
163	0x3de452da	0.11148615
164	0xbd0eb4bf	-0.03484034
165	0x3caa3f75	0.020782212
166	0x3d989a4d	0.074513055
167	0xbb0fa0e6	-0.0021915971
168	0xbc8bd429	-0.01706894
169	0x3e1351e9	0.14386715
170	0x3d7ad0ac	0.06123416
171	0x3cd980ad	0.026550615
172	0x3c47bd84	0.01219118
173	0x3ddca9fb	0.10774609
174	0x3d7f7b51	0.062373463
175	0xbaf42a8c	-0.0018628403
176	0xbd210750	-0.039313614
177	0x3df8940b	0.12137612
178	0x3cbacc25	0.022802422
179	0x3ce77673	0.028254723
180	0x3d8480a5	0.064698495
181	0x3da2df21	0.07952715
182	0x3d9a7c5d	0.07543252
183	0xbb037cd6	-0.0020063422
184	0xbbdf2dda	-0.006810886
185	0x3d8f4d74	0.06997195
186	0x3d1bc196	0.038026415
187	0x3c729c5c	0.014807787
188	0x3cf971bc	0.03044974
189	0xbd000d19	-0.03126249
190	0x3df63513	0.12021842
191	0x3d94b538	0.07261127
192	0x3db73834	0.08946267
193	0xbd4dc5f1	-0.0502376
194	0x3db57329	0.08859856
195	0x3d660bde	0.05616366
196	0x3d12fe9c	0.035887346
197	0x3dc9a2b3	0.098454855
198	0x3dde6752	0.108595505
199	0x3cb9b120	0.022667468
200	0xbb8e68dc	-0.0043459963
201	0x3cb11c71	0.021620007
202	0x3c9071d7	0.017632408
203	0x3df6e10b	0.12054642
204	0xbc722cc5	-0.014781182
205	0x3dc76960	0.097368956
206	0x3c8e62cd	0.017381096
207	0x3df8cd8d	0.12148581
208	0x3dec6b21	0.11543871
209	0x3bd80cb4	0.006593311
210	0xbd036692	-0.03208024
211	0xbd06a36a	-0.032870688
212	0x3d63e2ec	0.05563633
213	0x3ca46793	0.02006892
214	0x3c26a968	0.010172226
215	0x3deae47d	0.11469362
216	0x3d0cc3c7	0.034366395
217	0x3cb3fcd3	0.021971142
218	0xbc4841dd	-0.012222734
219	0x3da8282c	0.08210787
220	0x3b773b25	0.0037724462
221	0x3d7eac0b	0.06217579
222	0x3e0d8732	0.13821104
223	0x3d1ce32c	0.038302585
224	0x3dc525bd	0.09626339
225	0xbd185d25	-0.037198205
226	0x3be3513b	0.0069371737
227	0x3d7cdff9	0.061737034
228	0x3dababd2	0.083823815
229	0x3d2a784e	0.041618638
230	0xbcc9e912	-0.02464727
231	0x3d5f1e42	0.054472215
232	0x3d8d238e	0.06891547
233	0xbc14ad6c	-0.00907455
234	0x3cbbf2ba	0.02294289
235	0x3d609b7d	0.054835785
236	0x3dddc84b	0.108292185
237	0x3d40fc79	0.047115777
238	0x3d13b4d8	0.036061138
239	0x3d8f3fcb	0.069945894
240	0x3d078183	0.033082496
241	0xbc67073f	-0.014100849
242	0xbcba8e06	-0.0227728
243	0x3c15f059	0.009151542
244	0xbbf2454b	-0.0073935143
245	0x3ddf145d	0.10892556
246	0x3dd92e48	0.106045306
247	0xbd3cbdcc	-0.046079442
248	0x3d3eaf2a	0.04655377
249	0xbd4cf47b	-0.050037842
250	0x3d706c9c	0.058697328
251	0x3d091e02	0.033475883
252	0xbbe94c94	-0.0071197245
253	0x3d85d25c	0.065342635
254	0x3d6e9b43	0.058253538
255	0x3e0bd352	0.13654831

model.2.bias f4 [64]
0	0xbb47e119	-0.003049916
1	0x3e069e87	0.13146411
2	0x3d20cec6	0.039259695
3	0xbd8a3ac8	-0.06749493
4	0xbd80665b	-0.06269523
5	0x3d1ee90b	0.038796466
6	0xbd869e86	-0.06573205
7	0x3d9fe3e5	0.07807139
8	0xbd78240f	-0.060581263
9	0x3cf558dc	0.029949598
10	0x3cacfc32	0.02111635
11	0xbd126bbd	-0.03574728
12	0x3d83bb2b	0.06432184
13	0x3dc79a97	0.097462825
14	0x3d98be91	0.07458223
15	0x3d9afc68	0.07567674
16	0xbdc8418e	-0.097781286
17	0xbda2cb16	-0.07948892
18	0x3c3d6c1b	0.011561419
19	0xbcad3950	-0.021145493
20	0x3d8a0261	0.06738735
21	0xbcd2d5bf	-0.025736688
22	0xbdd2f759	-0.10301084
23	0xbb1ddd7d	-0.0024088316
24	0xb9eed222	-0.0004555146
25	0x3c8c034e	0.01709142
26	0xbd87034c	-0.06592426
27	0x3cae762c	0.021296583
28	0x3da1e6ea	0.079053715
29	0x3d4609c3	0.048349153
30	0xbd2b24c6	-0.041783117
31	0x3a9fa6ff	0.0012180506
32	0xbc10045b	-0.008790101
33	0xbdbee9c6	-0.093219325
34	0x3cb09c77	0.021558983
35	0x3d7443c3	0.059634935
36	0xbd772392	-0.060336657
37	0xbd8f84ac	-0.07007727
38	0x3dff866e	0.12476812
39	0x3de1091a	0.10988064
40	0xbb7f7811	-0.0038981477
41	0xbb823049	-0.003973041
42	0x3dc04448	0.093880236
43	0x3d61c3ff	0.055118557
44	0x3d7fda48	0.06246403
45	0xbd8df192	-0.069308415
46	0xbbf783a7	-0.007553536
47	0xbd3a18fd	-0.045433987
48	0x3d1eed52	0.038800545
49	0x3b52703f	0.003211036
50	0x3ba340dd	0.0049820975
51	0x3d44ac98	0.04801616
52	0x3d8d2203	0.06891253
53	0x3d99bd78	0.075068414
54	0xbd840add	-0.064473845
55	0x3e06954a	0.13142887
56	0x3d8b9280	0.06815052
57	0xbcd6f1f7	-0.026238425
58	0x3dbe2a0d	0.09285364
59	0xbb38d958	-0.002820572
60	0x3da03d4d	0.07824192
61	0x3da4e698	0.08051795
62	0xbd1366a8	-0.035986573
63	0xbc8f578c	-0.0174978

model.4.weight f4 [1, 64]
0	0x3d4e9529	0.05043522
1	0xbdee3f9e	-0.11633228
2	0x3dcd9be6	0.10039501
3	0x3d41a307	0.047274616
4	0x3d854eba	0.065091565
5	0x3d25ad3a	0.040448405
6	0x3c9fb20d	0.01949408
7	0xbe124c4a	-0.14286914
8	0x3be19350	0.006884016
9	0xbe190c20	-0.14946032
10	0x3d726add	0.059183944
11	0xbe19dcc4	-0.15025622
12	0xbdce04e1	-0.10059524
13	0xbded4a39	-0.115864225
14	0xbbe13910	-0.0068732575
15	0xbe1bf84d	-0.15231438
16	0x3dc2e519	0.09516353
17	0x3dda0a0a	0.10646446
18	0x3da9ad4c	0.08285007
19	0xbdc634f8	-0.09678072
20	0xbdb1aa20	-0.08675027
21	0x3dd300d0	0.10302889
22	0x3dd6c84f	0.104874246
23	0xbb4358ed	-0.0029807643
24	0x3db55d5d	0.08855698
25	0x3dda29fb	0.106525384
26	0x3d4aa821	0.049476746
27	0x3d87a27f	0.066227905
28	0xbdb5c26e	-0.08874975
29	0xbda311e3	-0.07962396
30	0x3d689f87	0.056792762
31	0x3c8dc276	0.01730464
32	0x3d319c36	0.043361865
33	0x3cd46dfb	0.025931349
34	0x3d24e749	0.040259633
35	0xbe1f14d6	-0.15535292
36	0x3d93bcc0	0.072137356
37	0x3d0c769e	0.03429281
38	0xbe2747da	-0.16336003
39	0xbdd6df28	-0.104917824
40	0xbdf0220b	-0.11725243
41	0xbc88fec1	-0.016723039
42	0xbe0d4be3	-0.1379848
43	0xbd9e0ad1	-0.07716907
44	0x3cffa120	0.03120476
45	0x3d0f875e	0.035041206
46	0x3cf009f9	0.02930163
47	0x3d91df88	0.07122713
48	0x3d863fc2	0.065551296
49	0xbe331817	-0.17489658
50	0xbe20280d	-0.15640278
51	0x3cbbe04d	0.022934103
52	0xbdd4520e	-0.10367213
53	0xbe0e8cab	-0.13920848
54	0x3cf6615b	0.03007572
55	0xbdbf54cc	-0.093423456
56	0xbb2c152c	-0.0026257737
57	0x3dd54d67	0.10415154
58	0xbe25fba2	-0.16209272
59	0xbdd176c2	-0.102277294
60	0xbdc892e3	-0.097936414
61	0xbe2d9705	-0.1695214
62	0x3d690b06	0.05689528
63	0x3d38548e	0.045002513
